…
    "train_X = np.ndarray((1341,300,150,1))\n",
    "for i in range(0,1341):\n",
    "    train_X[i] = np.reshape(input_var[i],(300,150,1))"
   ]
  },
  {
   "cell_type": "code",
   "execution_count": 12,
   "metadata": {},
   "outputs": [
    {
     "name": "stdout",
     "output_type": "stream",
     "text": [
      "Model: \"sequential\"\n",
      "_________________________________________________________________\n",
      "Layer (type)                 Output Shape              Param #   \n",
      "=================================================================\n",
      "conv2d (Conv2D)              (None, 298, 148, 64)      640       \n",
      "_________________________________________________________________\n",
      "max_pooling2d (MaxPooling2D) (None, 99, 49, 64)        0         \n",
      "_________________________________________________________________\n",
      "conv2d_1 (Conv2D)            (None, 97, 47, 32)        18464     \n",
      "_________________________________________________________________\n",
      "max_pooling2d_1 (MaxPooling2 (None, 48, 23, 32)        0         \n",
      "_________________________________________________________________\n",
      "conv2d_2 (Conv2D)            (None, 46, 21, 16)        4624      \n",
      "_________________________________________________________________\n",
      "max_pooling2d_2 (MaxPooling2 (None, 23, 10, 16)        0         \n",
      "_________________________________________________________________\n",
      "flatten (Flatten)            (None, 3680)              0         \n",
      "_________________________________________________________________\n",
      "dense (Dense)                (None, 800)               2944800   \n",
      "_________________________________________________________________\n",
      "dense_1 (Dense)              (None, 300)               240300    \n",
      "_________________________________________________________________\n",
      "dense_2 (Dense)              (None, 1)                 301       \n",
      "=================================================================\n",
      "Total params: 3,209,129\n",
      "Trainable params: 3,209,129\n",
      "Non-trainable params: 0\n",
      "_________________________________________________________________\n"
     ]
    }
   ],
   "source": [
    "model = tf.keras.models.Sequential([\n",
    "  tf.keras.layers.Conv2D(64, (3,3), activation='relu', input_shape=(300,150,1)),\n",
…
